model_weights.pth (torch, 568712 bytes, 7 tensors)

conv1.weight f4 [32, 3, 3, 3]
000000 ad 54 58 3e 8d b4 48 3d fd 0a 57 3e c2 7e 25 be
       0.21126051 0.04900031 0.21000285 -0.16161636
000010 48 c2 e6 3b c1 ec d2 3d b9 34 46 bd 31 38 28 3d
       0.007042203 0.102990635 -0.048390124 0.041069213
000020 ee 8f 22 3d 69 42 51 3e c0 40 c3 bd 9f 1e 3b bd
       0.039688043 0.2043549 -0.095338345 -0.0456835
000030 0e 8b 09 bc 4e 3f e8 bd 93 69 70 be fb 32 a3 be
       -0.00839497 -0.113401994 -0.23477773 -0.31874833
000040 27 d6 2a be 91 d8 19 be 53 6a 99 bc 5e 04 86 3e
       -0.16683255 -0.1502402 -0.018727457 0.26175207
000050 e9 19 35 3e 7c 03 48 3e 54 49 4b 3d d4 b5 0b be
       0.17685665 0.19532579 0.049630478 -0.1364358
000060 05 4d 7a be f5 b7 32 be 7d 75 9e 3d 95 fb 34 be
       -0.24443443 -0.17452987 0.07737253 -0.17674096
000070 dd 1a 8b 3d c2 b4 52 bd a3 48 99 bd 20 2e 97 be
       0.06792233 -0.051441915 -0.074845575 -0.29527378
000080 52 7f 91 bd 74 b0 95 be 04 42 5d bd 9d 6e 60 be
       -0.071043625 -0.29236186 -0.054018036 -0.21917196
000090 4a 10 81 be a5 cc 27 3d a2 d0 48 bd 6c 0c 23 3d
       -0.2520774 0.04096665 -0.049027093 0.03980677
0000a0 6e 35 26 3d 49 90 2a be 78 fb cf 3c 2b 6f 04 be
       0.0405783 -0.16656603 0.025388464 -0.12933032
0000b0 71 23 e2 3d 6a c6 57 3e b7 44 17 bd dc 5e 25 3e
       0.11041916 0.21071783 -0.036930766 0.16149467
0000c0 11 24 80 3e 8a cd 8f 3d 78 9a 1c 3e d6 d8 15 3e
       0.25027516 0.07021625 0.152933 0.14633498
0000d0 2d 16 ff 3d 09 19 0b 3e 09 8a b1 bd 05 43 b9 39
       0.124554016 0.13583769 -0.08668906 0.00035335883
0000e0 4d 7e 02 bd 0b 8e 73 3e 2e 00 9e bd 46 ce 5d 3e
       -0.03185873 0.23784654 -0.07714878 0.21660718
0000f0 f1 e4 7b bc 8d e4 48 bd 92 87 0f be 72 da 0c 3d
       -0.015374408 -0.049046088 -0.1401656 0.034388013
000100 b1 c5 22 be b2 06 0a 3e 41 95 24 3e 57 46 80 be
       -0.15895726 0.13479117 0.16072561 -0.25053665
000110 c0 9a 75 3e 20 9e 62 be a6 ec b2 3d 72 21 40 3e
       0.23984814 -0.22130632 0.08736543 0.18762758
000120 08 35 24 bd 89 ea 4a 3e e5 ea f7 bd c2 06 27 3d
       -0.040089637 0.1981603 -0.121053495 0.04077793
000130 99 45 99 be 42 6e ab bd 25 45 ee 3c 38 e9 37 3e
       -0.2993591 -0.083706394 0.029085705 0.1796006
000140 6d d1 35 be 07 1a 16 3d 01 25 f0 bd 52 1f 43 3e
       -0.17755671 0.036645915 -0.11725808 0.19054917
000150 4b f7 9a 3d 0e 48 c8 bd 56 e4 1c 3e 7e 2c 1d 3e
       0.07566699 -0.09779368 0.15321478 0.15349004
000160 fa 0b a7 3d 2f 7f fc bc 0b cf 07 3c e7 02 94 3d
       0.08156581 -0.030822365 0.008289109 0.07227116
000170 52 36 f1 3d 06 bf 4c 3e c1 78 0a 3e 86 de 40 3c
       0.11777939 0.19994745 0.13522626 0.011771804
000180 a4 58 29 be 42 1c 95 3d 74 de fe bd ad dd 04 be
       -0.1653772 0.072807804 -0.12444773 -0.12975188
000190 3c 66 0f 3e 73 64 c3 3d ea 8b 51 3e 2d 7f 2b be
       0.14003843 0.095406435 0.20463529 -0.16747732
0001a0 c6 9a 98 3c 16 08 05 be dd b0 4c 3d f2 dd 47 be
       0.01862849 -0.12991366 0.049973357 -0.19518259
0001b0 a7 2a 82 bc 38 bc 94 3d 17 90 e1 3d 38 4c 02 be
       -0.015889479 0.072624624 0.11013811 -0.12724388
0001c0 0b b6 9f be 89 d3 35 3b fe 6a 70 3e 60 ca 26 3e
       -0.31193575 0.0027744493 0.23478314 0.16288137
0001d0 32 02 c9 3d 03 23 cb bc ad ce e0 3d 5b 82 79 bd
       0.09814872 -0.024796968 0.1097692 -0.060915332
0001e0 f2 b5 2e be 3e a8 93 be ef 62 48 be 94 ab 00 bd
       -0.17061594 -0.28839296 -0.1956899 -0.03141363
0001f0 56 4f b9 3d 79 3d 48 3e c2 f3 a2 bb 0e 33 0c 3e
       0.09048335 0.195547 -0.004972906 0.13691351
000200 1c cc c3 3c c1 a5 5f 3c 5e ca 2b be e5 f7 81 3d
       0.023901038 0.013650359 -0.16776416 0.0634611
000210 06 89 38 3e ba 81 49 3d 5a a9 01 3e 3c b1 e2 3d
       0.1802102 0.049195983 0.12662259 0.11068961
000220 18 cf 18 bd e5 31 75 be 32 e5 fb bd 87 38 d1 bb
       -0.037306875 -0.23944815 -0.12299575 -0.0063849124
000230 e0 8f 80 3d 78 61 01 be 9c fa e9 3d a0 ba 7e 3e
       0.06277442 -0.12634838 0.11424753 0.2487588
000240 b2 ba ce ba fe 39 0d bd db f3 54 be 3c e0 32 be
       -0.0015772192 -0.034479134 -0.20796148 -0.17468351
000250 6f 10 28 be ba 5b 6f 3e 51 4e dc bd fb b1 a0 bd
       -0.16412519 0.23374835 -0.10757125 -0.07846447
000260 f4 12 73 3e cc 5d 74 3d d9 e8 9e 3d f4 1c 9c be
       0.23737699 0.059659764 0.07759256 -0.3049084
000270 a1 db 26 3b 94 4d 87 be 72 a4 27 3e 11 2c 5e be
       0.00254605 -0.26426375 0.16371325 -0.21696497
000280 51 36 eb bd 23 65 d6 3d f0 53 05 be bb e2 4e 3e
       -0.114849694 0.10468509 -0.13020301 0.20203678
000290 eb 1d f7 3b 0c ca c4 bb d7 3d db bd d6 3a 3f 3e
       0.0075414083 -0.006005531 -0.107051544 0.18674788
0002a0 e7 56 3c be 62 01 08 3d 4d fd 73 be da b9 ca 3d
       -0.18392526 0.033204444 -0.23827095 0.098987296
0002b0 af 4e 21 3d e0 37 61 3e a0 25 c9 3c d5 68 8c bd
       0.03938168 0.21993971 0.024554074 -0.068559326
0002c0 c2 14 13 3d 4a 37 59 3d b0 9c 8e be 38 fe 86 bd
       0.035908468 0.053031243 -0.27853918 -0.06591457
0002d0 3b c4 82 bc 66 e6 46 3e f1 c5 0c 3e c5 c8 09 be
       -0.01596271 0.19423828 0.13747384 -0.13455494
0002e0 86 46 4d 3e af c2 7a 3e ed 6e 2b 3e 87 7a a3 bc
       0.20046434 0.24488328 0.16741534 -0.019955887
0002f0 9e 42 20 be e5 a7 27 3e 9c b0 98 bd f8 52 24 ba
       -0.15650412 0.1637264 -0.074555606 -0.0006268467
000300 ef 15 cc 3d c2 96 d2 bc a0 de fc bd 02 31 00 3c
       0.09965121 -0.025706653 -0.1234715 0.007824184
000310 bb b7 50 3c 8f c8 0a be 1c f8 d8 bb 5d f8 89 be
       0.012739117 -0.1355307 -0.006621374 -0.269473
000320 7a e5 64 3e 7c 33 aa bd 04 c2 7f 3d 6a ca 4c be
       0.22353163 -0.08310601 0.062440887 -0.1999909
000330 05 c1 d8 bd 41 96 18 3d 6b de af be 1b 0f aa bc
       -0.105836906 0.03725267 -0.3434938 -0.020759156
000340 f9 42 2d be 32 80 37 3d 7b 7a ac 3d b5 04 2f 3e
       -0.1692008 0.04479999 0.08421799 0.1709164
000350 67 83 2c 3e 4e 6e fd bd 6f ca 83 3e fb 29 4c bd
       0.16847001 -0.123745546 0.25740382 -0.049844723
000360 82 54 97 bc 9d f9 2a be ff 5d b2 bd 6c 32 17 bd
       -0.018472914 -0.16696782 -0.087093346 -0.03691332
000370 19 2f 7e 3e 3d d3 aa 3d 13 93 13 3e 20 59 1a bd
       0.24822654 0.08341072 0.14411573 -0.037682652
000380 a0 74 9a ba 1b 4e b3 bd 7f 75 50 be 47 1a 2b be
       -0.0011784025 -0.08755132 -0.20357321 -0.16709243
000390 9a 83 29 3e 97 e2 d0 3d 0a 4e 89 ba 7d f2 50 3c
       0.16554108 0.101994686 -0.0010475528 0.012753126
0003a0 8a 31 e1 bc d7 28 43 3e 47 1c 84 bb fd a9 48 3d
       -0.027489442 0.19058548 -0.0040316912 0.04899024
0003b0 34 a0 56 be 32 a8 2d 3e db 87 8a 3d 7f a5 bc 3d
       -0.2095955 0.16958693 0.067641936 0.092112534
0003c0 04 56 63 be fc da 6b be 8f 5a de bd 27 6f 91 3b
       -0.22200781 -0.23032755 -0.108571164 0.004438299
0003d0 22 f3 8c be 1a 14 99 3c 6b 2a 79 3e d9 21 07 3e
       -0.27529246 0.018686343 0.24332587 0.13196506
0003e0 a1 a1 98 be 79 df 5e be 88 a6 b9 3d e9 04 e4 3d
       -0.29810813 -0.21764936 0.090649664 0.11133749
0003f0 33 2d 61 be 08 be 7d bc 26 ec 57 3e 50 43 82 3e
       -0.21989898 -0.0154872015 0.21086177 0.2544198

conv1.bias f4 [32]
000000 af b4 01 3e a2 18 4c 3e 59 56 09 bd 71 af be be
       0.12666582 0.19931272 -0.033529613 -0.37243226
000010 79 79 16 be ce 83 1a 3e 2a d9 6c be 04 59 5e bc
       -0.14694776 0.15089342 -0.23129717 -0.013571028
000020 e0 4e 0c bd fa c4 18 3e b4 7e 37 be fa 51 1b 3d
       -0.03425491 0.1491889 -0.17919427 0.037919976
000030 4f 48 60 be 57 2b 72 3d 3a 1b 9d bd 39 18 d6 bd
       -0.21902584 0.059123363 -0.07671209 -0.10453839
000040 be 71 9d 3d bd e7 9c be 26 a6 47 be 96 a5 ec 3d
       0.0768771 -0.30645552 -0.19496974 0.115550205
000050 ca 68 71 3e 9e c3 c4 3c 06 0b e0 bd 58 be b9 bd
       0.2357513 0.024019059 -0.109396026 -0.09069508
000060 a9 16 a3 be 9a a5 16 3d 2e 19 9e bd 7b e0 21 3e
       -0.31853226 0.036779024 -0.077196464 0.15808289
000070 dd 52 0e bb 4b b5 34 3e ee 26 b1 bc 58 74 c7 bd
       -0.002171687 0.17647283 -0.021625008 -0.09738988

conv2.weight f4 [32, 32, 3, 3]
000000 59 de a0 bd 05 a8 66 3c fc 38 17 bd dc 04 ce 3c
       -0.078549094 0.014078145 -0.03691958 0.025148802
000010 f9 77 05 bc 81 c1 1b 3c 75 2b 52 bd 80 d7 2b 3c
       -0.0081462795 0.009506584 -0.051310975 0.010488391
000020 ef 81 dc bd 5f 18 d8 3d e3 c3 00 3d 42 ae d9 bd
       -0.1076697 0.105515234 0.031436812 -0.1062894
000030 b9 09 01 3e fa d6 bd 3d 56 fa 69 bd 9b 17 62 3d
       0.12601365 0.09269519 -0.057123505 0.055198293
000040 b2 92 75 3a af 19 66 bd 9d 91 65 bd 2a 9e 69 3d
       0.00093678676 -0.056176838 -0.05604707 0.057035603
000050 a8 f9 b5 3e 20 81 3b bc 1e 91 f6 bb 5f 24 e1 3e
       0.35542035 -0.01144436 -0.0075246235 0.4397306
000060 80 38 ac bd 5c 7d e5 bc ca ec a0 3e ed 29 3c bd
       -0.08409214 -0.028013878 0.31430656 -0.04593842
000070 5d a3 3d 3d a9 45 11 bc f5 71 bb bd 7d 45 6c bc
       0.046298373 -0.008866706 -0.09152595 -0.014420864
000080 b2 00 23 bc 9e d1 1b bd d3 1c 96 3d 09 a7 6c 3c
       -0.009948896 -0.038041703 0.073297165 0.014444121
000090 9f e0 78 bd 5c eb a5 bb 89 47 fc 3c 3b 47 4c 3b
       -0.06076109 -0.0050634574 0.03079583 0.0031170386
0000a0 1a cb 05 3c b8 a7 33 3e 7a e4 cc b8 9b de 4d 3d
       0.008166099 0.17544448 -9.770035e-05 0.05026112
0000b0 23 d1 3a 3d fa 53 e4 bc 96 45 f4 bc 38 30 34 3e
       0.045609605 -0.027872074 -0.029818337 0.17596519
0000c0 41 08 05 bd 40 ea 43 bd 82 ad cc 3d ca 27 c3 bc
       -0.032478575 -0.04783082 0.099940315 -0.023822684
0000d0 e7 71 90 3c 0b cb 19 3e c2 68 c5 3c af 49 64 3c
       0.017632438 0.15018861 0.024097804 0.013933583
0000e0 1f d2 b3 bc 31 fe 0f bd 7e ac 43 3d 18 7f bd bd
       -0.02195078 -0.035154525 0.047771923 -0.09252757
0000f0 45 5e 39 3d aa d6 96 bc 34 fa a2 bd fe 36 20 3e
       0.045255918 -0.018412907 -0.07957879 0.15645978
000100 04 49 a2 3d f0 18 c6 3d 80 77 51 3d c5 ef 5d 3d
       0.07924083 0.09672725 0.051139355 0.05418374
000110 1a c6 ea 3d f6 87 3c 3e f5 be 25 3e a0 75 03 3e
       0.11463566 0.1841124 0.16186126 0.12837839
000120 0d 28 09 be 34 26 d1 bd 36 51 f1 bc 9b 9a d8 bd
       -0.13394184 -0.10212365 -0.02945767 -0.10576364
000130 04 5c ca 3c dc aa 22 bd a5 1c 7b bd 4f 43 fd bc
       0.02470208 -0.039713725 -0.061306614 -0.030915884
000140 f7 bd 85 bd 52 fb 05 bb 51 2c 8c 3d 8e c5 ee bc
       -0.065303735 -0.0020443988 0.0684439 -0.029146936
000150 8d 9d 11 3d 84 9e 9e 3d 31 52 a7 3d db 5d 97 3d
       0.035550643 0.07745078 0.08169974 0.073909484
000160 7a b9 b3 3b a7 44 ab 3c 5f 72 ab 3c fc aa 16 bd
       0.005484757 0.02090676 0.02092856 -0.036784157
000170 73 cc 10 bd ab ea 77 bc 9f e1 97 3d 67 f3 91 bc
       -0.035351228 -0.015131633 0.07416081 -0.017816259
000180 33 69 26 3d 98 19 9c 3c 70 41 05 3e bb 02 17 3e
       0.04062767 0.019055173 0.13013244 0.14747135
000190 88 18 06 3e 66 e3 31 3e 60 8f ce 3b da 2d a0 3d
       0.13095295 0.17371902 0.0063037127 0.078212455
0001a0 fa 57 f9 3d a7 ce 28 3d 32 0a 81 3d 14 c8 1e 3e
       0.12174983 0.041212704 0.06300773 0.15506011
0001b0 ae d9 86 bd 51 14 9f 3c 93 0e fb 3c 1d 60 81 bd
       -0.06584488 0.019418867 0.030646598 -0.0631716
0001c0 23 5a d3 3c b9 b4 cf 3d f5 ee 0b bd a5 22 08 bd
       0.025799816 0.10141892 -0.034163434 -0.033236165
0001d0 2d e8 af 3d 92 0c 42 bb 17 e5 b6 bc 7d 8e 50 bc
       0.08589206 -0.0029609543 -0.022326035 -0.012729284
0001e0 ea 98 2e bd 19 08 de 3c d8 56 51 bd 80 9d 71 3c
       -0.0426263 0.02710347 -0.05110821 0.014747024
0001f0 59 62 8b bd 10 01 8e bd 85 20 66 bd 61 04 96 bd
       -0.06805868 -0.069337964 -0.056183357 -0.07325054
000200 80 c5 13 3c ce 3a 53 bd 11 18 15 bd 7e ac c1 bb
       0.009019256 -0.051569752 -0.036399905 -0.0059104552
000210 1f 55 96 bd d9 2a 85 bd 36 77 2a 3d 7d f7 eb bb
       -0.07340454 -0.06502313 0.041617595 -0.0072011338
000220 b4 3d 9a 3c af c2 f3 3d 6f e0 1c 3c 68 28 f0 3d
       0.01882825 0.11902367 0.0095749935 0.11726457
000230 43 b8 05 3e 3e ab 10 bd e1 38 39 3c 65 db 22 3e
       0.13058572 -0.03531956 0.011305065 0.15904005
000240 20 98 83 3d f5 06 4d 3c 90 c9 4f 3e ce dd 78 3d
       0.064255 0.012513866 0.20291734 0.060758404
000250 a0 bf fa 3c 79 8f 7d 3e 95 ac 65 bd c2 46 e3 bd
       0.030608952 0.24761762 -0.05607279 -0.1109748
000260 90 87 b9 3c b0 a0 09 be bf de a2 bd 6d 62 e2 bd
       0.022647649 -0.13440204 -0.07952642 -0.110539295
000270 56 85 b4 bd b5 22 59 bc 55 aa 93 bd 6e f7 18 3c
       -0.08814494 -0.013252904 -0.07210223 0.009336336
000280 ff 87 40 bc 59 5b e5 bc 3c 49 44 bc 51 1c 34 3d
       -0.011751174 -0.02799766 -0.011980351 0.043972317
000290 ad 4a 61 bd 0d 66 37 bb 10 da 0e bd 16 33 52 3c
       -0.055002857 -0.002798441 -0.03487593 0.012829563
0002a0 ba f4 d6 bb 6c 7b 40 3d de a7 1f bd 44 82 14 bd
       -0.0065599354 0.046992704 -0.03897845 -0.036257043
0002b0 a3 c0 66 bd 6c be d7 3c 55 d9 aa bd 67 9d 03 bd
       -0.056336056 0.026335917 -0.08342234 -0.032132532
0002c0 c2 07 42 3d 0a 8e 27 bd 9a d7 a6 bc 8e b0 26 3c
       0.04737068 -0.040906943 -0.020366479 0.01017393
0002d0 0b 74 eb bc be 85 8e 3d b5 b4 74 bd f6 27 93 bc
       -0.028741857 0.06959103 -0.05974265 -0.01796339
0002e0 66 6b 79 3c df da 4f bc 02 5c c9 bb 6e ee 83 3c
       0.01522336 -0.01268646 -0.0061450014 0.016104903
0002f0 1f 61 2b bd 0e e8 c2 3c 7d 22 83 3d 6b 66 81 bd
       -0.04184067 0.023792293 0.064030625 -0.06318363
000300 9a 10 a4 3d 7c bf 2d 3e c5 d4 1b 3e 36 98 a8 3d
       0.08010979 0.16967577 0.15217884 0.08232157
000310 fc e7 c4 3d d9 b8 7a bd 73 19 ec 3c 77 df f3 bc
       0.0961456 -0.06121144 0.028820729 -0.029769642
000320 d2 bf d9 bb 90 3a a8 bc 8c dd 1c bd 3a 04 10 3c
       -0.006645181 -0.020535737 -0.03829722 0.00879007
000330 85 1c 0a bd 89 f6 43 bd 04 d3 8f 3d 5e ee 35 bd
       -0.033718605 -0.047842536 0.0702267 -0.044416778
000340 7b 99 7c bc 21 79 04 3e 7f fd b8 3d 27 4c c5 bc
       -0.015417452 0.12936832 0.090327255 -0.024084164
000350 44 e4 71 3e 5c 54 23 3e 37 2c e2 3d 40 85 43 3e
       0.23622233 0.1595015 0.110435896 0.190938
000360 6e fa 75 bd 6d 68 bd bc 86 fb 2d bd 30 f3 28 bc
       -0.06005328 -0.023121083 -0.0424762 -0.010311887
000370 1a de 19 bc 3a d1 b0 3a f6 a8 e5 3b 7f 0a 2c bd
       -0.009391332 0.0013490089 0.007008667 -0.042002197
000380 c3 61 05 3b ab e1 5c bc ab 5f ce bc cf 61 6e bd
       0.002035246 -0.013481538 -0.025192102 -0.058198746
000390 19 65 88 bd 26 d2 17 3d 8b 4c 8d bd 97 00 13 bd
       -0.06659908 0.037065648 -0.06899365 -0.035889234
0003a0 4b 27 6a bc df 5e 07 be 9b 37 8b 3d 16 7b ed 3c
       -0.014291595 -0.13219784 0.06797715 0.028989356
0003b0 09 77 45 3e 0d 21 11 bd d4 79 05 3e 07 1f ad 3e
       0.1928369 -0.03543191 0.13034755 0.33812734
0003c0 e2 90 f6 bc ff af 8d 3c cc 36 85 3e 98 59 86 bd
       -0.030098382 0.017295836 0.2601837 -0.065600574
0003d0 9a 3c 08 3d ef 98 78 3d 9a 29 b9 bc c9 9d ac bd
       0.03326092 0.060692724 -0.022602845 -0.08428533
0003e0 72 4b 09 3c 3c 4a cd bb fd 05 ba bc fc ed 97 ba
       0.008379804 -0.006264953 -0.022707934 -0.0011591311
0003f0 27 ae c2 bd 62 6f 56 3c b4 b5 f1 3d cf 55 9f bd
       -0.09505873 0.013088079 0.11802235 -0.077800386

conv2.bias f4 [32]
000000 e6 2f 04 be 66 4f 40 be 21 24 01 bd 47 04 4a 3c
       -0.12908897 -0.18780288 -0.031528596 0.012330121
000010 30 06 66 bd 43 1a a8 bc 6e a7 da bd 47 0f 02 be
       -0.056158245 -0.020520335 -0.10676466 -0.1270114
000020 52 4c b9 3c c6 77 b0 3d 4a 21 a0 bc e4 cb 7e bd
       0.0226194 0.08616595 -0.019547123 -0.062206164
000030 6e d5 f0 bd 09 a5 1c 3d 91 a0 8d bd b0 c0 17 be
       -0.117594585 0.038243327 -0.06915391 -0.14819598
000040 ea 73 16 be 08 a8 66 3d b3 2d 52 be 41 a8 ad bd
       -0.14692655 0.05631259 -0.20525245 -0.084793575
000050 f7 c5 ea bd 90 55 c4 bc f9 cb 9d bd 0e c6 30 be
       -0.1146354 -0.02396658 -0.0770492 -0.17263052
000060 7e 85 54 bd a6 0d 0b be 8f 1f dc bd c3 c8 12 bd
       -0.05188512 -0.13579425 -0.10748207 -0.035835993
000070 7a 58 15 3d e7 38 46 bc f4 36 6c 3e 55 8e 42 bc
       0.03646133 -0.0120985275 0.23067838 -0.011874755

fc1.weight f4 [64, 2048]
000000 0f 41 46 bc 6d 1c ab bc 70 05 87 bc 90 c4 6e 3b
       -0.012100472 -0.020887578 -0.016482085 0.0036433078
000010 86 46 01 bc 8b f3 25 bb 71 96 76 3a b8 af 99 bc
       -0.007890349 -0.0025322165 0.0009406573 -0.018760547
000020 51 26 1b bc de e6 1e bc 13 32 aa bb ae f3 0c bc
       -0.009469585 -0.009698598 -0.0051939576 -0.00860302
000030 44 3b 81 3b e4 b7 e7 b8 76 dc 9f bc 71 02 59 3c
       0.0039438326 -0.00011049191 -0.019514304 0.013245211
000040 a5 b7 8f bc 5f 3f 3c 3c 7c 06 99 bc 64 9c 8a bc
       -0.017543623 0.011489718 -0.01867985 -0.016920276
000050 cb 14 24 bc 4b 1c bf bc a0 01 a8 39 3a e0 e0 bc
       -0.010014723 -0.02332892 0.00032044668 -0.02745067
000060 57 35 2c bc f6 79 e1 bc 5e 08 26 bb 7e 04 aa 3b
       -0.010510764 -0.027523976 -0.0025334577 0.005188524
000070 87 ee 38 3c bb 4a 28 bc 5a d0 7f bc 58 6c 6a 3c
       0.011287338 -0.010271723 -0.01561364 0.014308058
000080 26 8c 1d 3c df 13 b2 bc 9b 0e c6 3b fc 48 78 3c
       0.0096159335 -0.02173799 0.0060442216 0.01515412
000090 d3 10 97 bb 64 fd 23 39 ae 13 23 3b 6b ab 85 bb
       -0.00461016 0.00015639287 0.0024883556 -0.0040792725
0000a0 b6 18 c7 bc 13 ed 48 bb 9d dd 82 bc 1e a2 94 3c
       -0.024303775 -0.0030658885 -0.015974814 0.01814371
0000b0 dd d6 56 bc 19 f3 e2 bb 46 1b 3c 3c d5 65 bf bc
       -0.013112751 -0.006925952 0.011481112 -0.023363987
0000c0 8c 2c ba bb 62 44 8d bc 05 ae 23 3c 81 c3 a6 bb
       -0.00568158 -0.017244522 0.00999022 -0.005089224
0000d0 39 9e a4 bc 90 18 e9 ba 18 9a 61 3b 90 64 73 bb
       -0.020094978 -0.001778381 0.0034424122 -0.0037138797
0000e0 1b e1 15 3a 15 ca b7 3b df 9d 28 bc b1 e4 ae bc
       0.0005717442 0.005608807 -0.010291546 -0.021349283
0000f0 5e f6 d4 bc 9b ba e9 bc 20 36 ab 3b 2d 11 67 3c
       -0.025996383 -0.028531363 0.005224958 0.014103216
000100 9e 08 3b 3c d4 36 a8 3b 3a 21 9a bc 67 24 57 bc
       0.011415629 0.005133489 -0.018814672 -0.013131238
000110 f6 76 e1 3b a5 b2 1e bb 1f ec 76 bb 6b b6 0f 3b
       0.0068806363 -0.0024215367 -0.003767736 0.0021928798
000120 09 b5 7d bc c7 bf eb ba 97 bc a0 bc 11 04 fd ba
       -0.015485057 -0.0017986231 -0.019621177 -0.001930358
000130 db f0 6a 3c e5 97 c5 3b d9 80 25 bc cf af 9f bc
       0.014339651 0.00603007 -0.01010152 -0.019493012
000140 3e 5c 92 3b c4 b8 2a 3c ea 1d 7f bb f9 fa a7 bc
       0.0044665625 0.010420028 -0.0038927742 -0.020505415
000150 7b d7 64 3c 9f c2 33 3c e7 30 9b bc 22 95 24 ba
       0.01396739 0.010971694 -0.018944217 -0.0006278326
000160 96 3d 0c bc a4 8b 86 bb 7d 73 f4 3b be e3 c5 bc
       -0.008559605 -0.004106002 0.0074600563 -0.024156447
000170 02 ed a2 bc c6 ae 56 3c 05 ed 81 bc 30 e9 1d bc
       -0.019888405 0.013103193 -0.01586009 -0.009638116
000180 92 29 18 3c 7f cf 71 3c 5b 9d 20 3c 35 98 e3 bc
       0.009287255 0.014758944 0.0098031415 -0.027782539
000190 ce be 2e bc 34 eb ad bc 6c ba 6f bc 1c 9d 88 ba
       -0.010665609 -0.021230318 -0.014631849 -0.0010422799
0001a0 12 27 04 3c ad 05 a6 bc 55 97 36 3c 96 36 61 3c
       0.008065956 -0.020266378 0.011144479 0.013745924
0001b0 4e dc 30 bc fe eb 7c 3c 3b 75 fd 3a 49 56 98 bc
       -0.010794712 0.015437124 0.0019337306 -0.018595831
0001c0 8d 3a ae bc c9 e3 92 3b 22 ca a0 bb 11 55 db bc
       -0.021268154 0.0044827205 -0.0049069086 -0.026773961
0001d0 5e 77 ea 3b c4 44 c0 bc 87 b2 54 ba 26 25 81 bc
       0.007155343 -0.02347029 -0.0008113761 -0.015764784
0001e0 79 6a e6 3b c4 d4 d4 bc fd a9 0c bb 01 0c a3 3b
       0.0070317355 -0.02598036 -0.0021463626 0.004975796
0001f0 60 07 6b 3c 30 51 6c 3c a9 01 9a bc 23 9e c8 bb
       0.01434502 0.0144236535 -0.01879962 -0.006122367
000200 7e 6f af 38 50 0a 3b bc bb 6f 6f 3c f0 6c 5f bc
       8.365417e-05 -0.011416033 0.014614041 -0.013636813
000210 a6 51 94 3c 1f cf a8 bc 52 a3 4f 3c 86 6f 36 bc
       0.01810534 -0.020606576 0.012673216 -0.011134988
000220 76 20 f4 bb 84 11 20 bc 25 4f 9c bc 99 9c c2 bc
       -0.0074501587 -0.009769801 -0.019080708 -0.023756312
000230 e6 75 1c 3b f6 0c 94 bb 92 ca e3 bb 4d 2c 29 3b
       0.0023873984 -0.0045181466 -0.0069516385 0.002581376
000240 4b 7b 2a bb e9 ee 78 3c 21 1d 4e 3c 6e 0b c6 bc
       -0.002601343 0.015193679 0.012580187 -0.024175372
000250 e8 62 7c 3c 11 e4 a7 bc 5f 96 ad bc 88 af 8e bc
       0.01540444 -0.020494493 -0.021189867 -0.017417684
000260 7d aa b3 bc d7 20 81 bc 35 57 2f bc 58 0c e7 3b
       -0.021931881 -0.01576273 -0.010701944 0.007051032
000270 af ac e6 bc 2a a3 61 3c 83 2b 48 bb a2 c3 0a 3c
       -0.028158514 0.0137718115 -0.0030543513 0.008469494
000280 72 c3 25 3c 00 f2 d9 bb 8a 3b 73 39 a4 a5 9c b8
       0.010117399 -0.006651163 0.00023196466 -7.469513e-05
000290 a3 16 41 3b 75 9e d5 bc 9d 2a 21 3c 3b 80 bf bc
       0.0029462955 -0.026076535 0.00983682 -0.023376575
0002a0 51 bd 57 3c f2 c2 45 bc 03 e0 78 bc 19 24 7d bc
       0.013167695 -0.012070404 -0.015190127 -0.015450501
0002b0 34 bc a1 3b ed 34 14 bb 43 cd 76 bc fd d6 1e bc
       0.0049357656 -0.0022614554 -0.015063587 -0.009694812
0002c0 e5 5c 30 bc fd 11 1c 3c b5 af 1a 3c e1 1e 90 bc
       -0.010764335 0.009525773 0.009441306 -0.01759285
0002d0 3d 80 bd bc 95 ae 86 bc 7d f0 a8 bb dd cf 30 bb
       -0.023132438 -0.01644067 -0.0051556216 -0.0026979365
0002e0 02 e3 20 3c e7 0e 71 bb 54 d7 b8 bc 7f 71 60 3c
       0.009819748 -0.0036782564 -0.022563614 0.013698935
0002f0 e8 68 ba bc 6b 25 de bb 48 13 ce 3b a7 da e2 3b
       -0.022755101 -0.006779363 0.0062889196 0.006923038
000300 16 f8 a5 3c 4a 4d af bc a1 8a 67 3c 8a 82 15 3c
       0.020259898 -0.021399159 0.014132173 0.009125361
000310 74 68 74 bc ce 1c a9 3c c9 09 77 3c 2b b5 64 3c
       -0.014917482 0.020643618 0.015078017 0.013959209
000320 c6 65 0a 3c 34 37 b1 3c 5d b5 a1 3c 7e 1c 46 bc
       0.008447116 0.021632768 0.019739801 -0.012091754
000330 e4 2c c8 3b 6a 09 54 bc 07 81 9d 3c 6e 8e 0a 3c
       0.006108867 -0.012941698 0.019226564 0.008456809
000340 0d 03 93 bc 7b 19 1b bc 6a d7 93 3c 20 a9 34 3c
       -0.01794579 -0.009466524 0.018047053 0.011026651
000350 38 54 60 bc c1 4e 1e bc 86 4b be 3b cb a1 ca 3a
       -0.013691954 -0.009662331 0.005807343 0.0015459595
000360 a9 3f 9d bc f2 f1 6f 3c 63 48 97 bc cd 5a 54 3c
       -0.019195395 0.014645087 -0.018467134 0.012961102
000370 cb 97 ee ba b2 4f 65 bc 76 5d 80 bb 25 44 79 bb
       -0.0018203197 -0.013996052 -0.0039173914 -0.0038035002
000380 57 d9 4b bc be 1f 74 3c dc 71 f5 bb 5f 60 96 3b
       -0.012441955 0.014900146 -0.0074903797 0.004589125
000390 39 83 76 3c a1 18 15 3c b8 33 9e bc 78 96 0b bc
       0.015045934 0.00910011 -0.01931177 -0.008519761
0003a0 3a 98 63 3c a2 57 f9 bb d1 6c 22 3c 08 13 77 bc
       0.013891274 -0.0076093236 0.009913639 -0.015080221
0003b0 50 b8 f4 bb 9d 66 5e bc c7 50 a6 3b 6f 54 8f 3b
       -0.007468261 -0.01357427 0.0050755474 0.004374079
0003c0 6f 18 10 3c b7 b2 23 3c ad 7d 6a bc 90 b0 3c 3c
       0.008794888 0.009991339 -0.01431219 0.011516705
0003d0 84 33 51 3c 33 c0 05 3c 7f 54 25 bb d4 99 ee bb
       0.01276863 0.0081635 -0.0025227366 -0.0072815213
0003e0 ac df 08 3c a1 7f 84 3c fc 28 a1 bc 55 66 b9 3a
       0.008354109 0.01617414 -0.019672863 0.0014144877
0003f0 11 61 0c 3c 4a dc 86 3c 08 ce 8d 3c 7a 74 3b 3c
       0.008568064 0.016462464 0.017310157 0.011441344

fc1.bias f4 [64]
000000 cf fe c3 bc 82 87 c9 3d a5 e1 a7 3b 8f 15 e9 3b
       -0.023925213 0.09840299 0.0051233345 0.0071131657
000010 9b 4d 06 bd 16 68 08 3a d3 b0 ea bc 0c c6 2b 3c
       -0.032788854 0.00052034983 -0.02864877 0.01048423
000020 22 5f 53 3c 8c 5a f8 bb 03 07 a2 bc b0 fd 6d bd
       0.012901099 -0.0075791534 -0.019778734 -0.058103263
000030 46 bd 15 bd 75 88 d8 ba 77 2b 51 bc 29 74 b1 3c
       -0.03655746 -0.001652016 -0.0127667105 0.021661835
000040 84 32 60 bd eb 8f 14 bd ac c6 0a 3e 13 a0 cf bc
       -0.054735675 -0.036270063 0.1355235 -0.025344884
000050 36 43 31 bc 43 35 92 3d c2 1c 7f bc 33 6f 0f 3c
       -0.010819247 0.07139065 -0.015570821 0.008754539
000060 c4 10 48 3c 8f 9f 97 bd 0d c9 98 bd c1 6c 49 bc
       0.0122110285 -0.0740348 -0.074602224 -0.012293995
000070 6b f6 e3 bc 55 1a a2 bd 8f 12 c2 bc 08 73 2e bc
       -0.027827462 -0.07915179 -0.02369049 -0.010647543
000080 3a 9d cd bb d3 bc 20 bd 86 0a 95 3c 44 36 e5 3d
       -0.0062748464 -0.039242577 0.018193495 0.11191991
000090 10 82 b3 3d 96 0d 60 ba b6 5e f5 bd 62 ad 4e bc
       0.08765042 -0.00085469463 -0.11980955 -0.01261458
0000a0 ca c1 c7 3b b6 9b d2 bc f9 ef 06 3e d4 b2 bd bc
       0.0060960995 -0.025709014 0.1317748 -0.023156561
0000b0 7a 9e b3 bc 5c fc 26 3c e1 5f 69 bb 9c ab d6 bc
       -0.021926153 0.010192003 -0.0035610127 -0.026204877
0000c0 14 09 7b bd 42 9e ae bb 73 f7 cf 3d a5 18 9e bc
       -0.061287954 -0.0053289244 0.10154619 -0.01929886
0000d0 8a 98 a5 bc 40 ec e9 bc 6e bd 04 3e 03 d8 e0 3d
       -0.020214338 -0.028555036 0.12962887 0.10978701
0000e0 fa 62 c4 ba 1d 18 14 bd 1d 21 bb 3d 4e 29 5d bb
       -0.0014983111 -0.03615581 0.09137175 -0.0033746543
0000f0 c1 bd c5 bc 58 ac 34 bc af 35 6f bd 39 5b 5d bc
       -0.024138333 -0.011027418 -0.058400806 -0.013510519

fc2.weight f4 [1, 64]
000000 6d 0a 9e 3d cf 14 07 be b6 c9 32 bb 59 0d 1e bd
       0.07716832 -0.13191532 -0.0027280874 -0.038586948
000010 df a8 ea bb 98 85 50 bd 48 31 07 bd a6 31 26 bd
       -0.0071612443 -0.050908655 -0.033005983 -0.040574692
000020 ac 4a 25 bd e3 6b 77 bd 6a 29 e6 3d c9 50 a6 3d
       -0.040354416 -0.060405623 0.11238368 0.08120877
000030 b9 cb b5 3e 42 7d c7 3c da 54 6c 3e d3 e4 80 3e
       0.3550699 0.02435172 0.23079243 0.2517458
000040 44 c3 b1 3e a6 ef 0c 3e a3 0f de bd 15 7a 13 bb
       0.34719288 0.13763294 -0.10842826 -0.0022503186
000050 53 fb db bc 8d db 12 3f 5d b6 0c 3e 8f aa ef 3c
       -0.02685324 0.5736626 0.13741441 0.029256133
000060 b4 e3 c9 bd 4a 74 ad 3e a0 3c 45 3e 91 ad 62 3e
       -0.09857884 0.33877784 0.19261408 0.22136523
000070 ba dd 1a bd 1b 62 46 3e aa 0e 39 3e 04 58 ba 3e
       -0.03780911 0.19373362 0.18072 0.36395276
000080 d3 06 b5 bd 40 eb ba 3d 45 29 b1 3e a5 d5 f4 bd
       -0.08839192 0.091269016 0.346018 -0.11954812
000090 20 70 0a 3f cc 14 70 bd 47 f9 e2 3e 3e 15 7d 3e
       0.5407734 -0.058613583 0.4433081 0.24715135
0000a0 fe 4d e1 bd 83 87 80 bd f0 0d 19 be b8 8a 42 3c
       -0.11001204 -0.06275847 -0.14946723 0.011873893
0000b0 c1 7e e5 bc 92 74 72 3d 43 f1 d1 bd 18 f8 f3 3d
       -0.028014543 0.0591932 -0.10251095 0.119125545
0000c0 6c 32 60 3e 07 2c dc 3e 00 d4 53 be 29 f9 a0 3d
       0.21894234 0.4300234 -0.2068634 0.078600235
0000d0 ef d7 a7 bd 81 59 6f 3e 38 cb ec bd cc 02 5b be
       -0.08195483 0.23373987 -0.115621984 -0.21387786
0000e0 b4 7d e7 3e 03 99 af 3e f3 93 03 be 86 83 dd bd
       0.4521309 0.34296426 -0.12849407 -0.10816102
0000f0 3b 77 7d 3e 5e 23 d1 3d 42 86 d5 3e dd 7e 94 3e
       0.24752514 0.10211824 0.41703993 0.2900304
